{"class_name": "Model", "config": {"name": "model_1", "layers": [{"name": "input_1", "class_name": "InputLayer", "config": {"batch_input_shape": [null, 3, 224, 224], "dtype": "float32", "sparse": false, "name": "input_1"}, "inbound_nodes": []}, {"name": "conv1/7x7_s2", "class_name": "Conv2D", "config": {"name": "conv1/7x7_s2", "trainable": true, "filters": 64, "kernel_size": [7, 7], "strides": [2, 2], "padding": "same", "data_format": "channels_first", "dilation_rate": [1, 1], "activation": "relu", "use_bias": true, "kernel_initializer": {"class_name": "VarianceScaling", "config": {"scale": 1.0, "mode": "fan_avg", "distribution": "uniform", "seed": null}}, "bias_initializer": {"class_name": "Zeros", "config": {}}, "kernel_regularizer": {"class_name": "L1L2", "config": {"l1": 0.0, "l2": 0.00019999999494757503}}, "bias_regularizer": null, "activity_regularizer": null, "kernel_constraint": null, "bias_constraint": null}, "inbound_nodes": [[["input_1", 0, 0, {}]]]}, {"name": "zero_padding2d_1", "class_name": "ZeroPadding2D", "config": {"name": "zero_padding2d_1", "trainable": true, "padding": [[1, 1], [1, 1]], "data_format": "channels_first"}, "inbound_nodes": [[["conv1/7x7_s2", 0, 0, {}]]]}, {"name": "pool_helper_1", "class_name": "PoolHelper", "config": {"name": "pool_helper_1", "trainable": true}, "inbound_nodes": [[["zero_padding2d_1", 0, 0, {}]]]}, {"name": "pool1/3x3_s2", "class_name": "MaxPooling2D", "config": {"name": "pool1/3x3_s2", "trainable": true, "pool_size": [3, 3], "padding": "valid", "strides": [2, 2], "data_format": "channels_first"}, "inbound_nodes": [[["pool_helper_1", 0, 0, {}]]]}, {"name": "pool1/norm1", "class_name": "LRN", "config": {"name": "pool1/norm1", "trainable": true, "alpha": 0.0001, "k": 1, "beta": 0.75, "n": 5}, "inbound_nodes": [[["pool1/3x3_s2", 0, 0, {}]]]}, {"name": "conv2/3x3_reduce", "class_name": "Conv2D", "config": {"name": "conv2/3x3_reduce", "trainable": true, "filters": 64, "kernel_size": [1, 1], "strides": [1, 1], "padding": "same", "data_format": "channels_first", "dilation_rate": [1, 1], "activation": "relu", "use_bias": true, "kernel_initializer": {"class_name": "VarianceScaling", "config": {"scale": 1.0, "mode": "fan_avg", "distribution": "uniform", "seed": null}}, "bias_initializer": {"class_name": "Zeros", "config": {}}, "kernel_regularizer": {"class_name": "L1L2", "config": {"l1": 0.0, "l2": 0.00019999999494757503}}, "bias_regularizer": null, "activity_regularizer": null, "kernel_constraint": null, "bias_constraint": null}, "inbound_nodes": [[["pool1/norm1", 0, 0, {}]]]}, {"name": "conv2/3x3", "class_name": "Conv2D", "config": {"name": "conv2/3x3", "trainable": true, "filters": 192, "kernel_size": [3, 3], "strides": [1, 1], "padding": "same", "data_format": "channels_first", "dilation_rate": [1, 1], "activation": "relu", "use_bias": true, "kernel_initializer": {"class_name": "VarianceScaling", "config": {"scale": 1.0, "mode": "fan_avg", "distribution": "uniform", "seed": null}}, "bias_initializer": {"class_name": "Zeros", "config": {}}, "kernel_regularizer": {"class_name": "L1L2", "config": {"l1": 0.0, "l2": 0.00019999999494757503}}, "bias_regularizer": null, "activity_regularizer": null, "kernel_constraint": null, "bias_constraint": null}, "inbound_nodes": [[["conv2/3x3_reduce", 0, 0, {}]]]}, {"name": "conv2/norm2", "class_name": "LRN", "config": {"name": "conv2/norm2", "trainable": true, "alpha": 0.0001, "k": 1, "beta": 0.75, "n": 5}, "inbound_nodes": [[["conv2/3x3", 0, 0, {}]]]}, {"name": "zero_padding2d_2", "class_name": "ZeroPadding2D", "config": {"name": "zero_padding2d_2", "trainable": true, "padding": [[1, 1], [1, 1]], "data_format": "channels_first"}, "inbound_nodes": [[["conv2/norm2", 0, 0, {}]]]}, {"name": "pool_helper_2", "class_name": "PoolHelper", "config": {"name": "pool_helper_2", "trainable": true}, "inbound_nodes": [[["zero_padding2d_2", 0, 0, {}]]]}, {"name": "pool2/3x3_s2", "class_name": "MaxPooling2D", "config": {"name": "pool2/3x3_s2", "trainable": true, "pool_size": [3, 3], "padding": "valid", "strides": [2, 2], "data_format": "channels_first"}, "inbound_nodes": [[["pool_helper_2", 0, 0, {}]]]}, {"name": "inception_3a/3x3_reduce", "class_name": "Conv2D", "config": {"name": "inception_3a/3x3_reduce", "trainable": true, "filters": 96, "kernel_size": [1, 1], "strides": [1, 1], "padding": "same", "data_format": "channels_first", "dilation_rate": [1, 1], "activation": "relu", "use_bias": true, "kernel_initializer": {"class_name": "VarianceScaling", "config": {"scale": 1.0, "mode": "fan_avg", "distribution": "uniform", "seed": null}}, "bias_initializer": {"class_name": "Zeros", "config": {}}, "kernel_regularizer": {"class_name": "L1L2", "config": {"l1": 0.0, "l2": 0.00019999999494757503}}, "bias_regularizer": null, "activity_regularizer": null, "kernel_constraint": null, "bias_constraint": null}, "inbound_nodes": [[["pool2/3x3_s2", 0, 0, {}]]]}, {"name": "inception_3a/5x5_reduce", "class_name": "Conv2D", "config": {"name": "inception_3a/5x5_reduce", "trainable": true, "filters": 16, "kernel_size": [1, 1], "strides": [1, 1], "padding": "same", "data_format": "channels_first", "dilation_rate": [1, 1], "activation": "relu", "use_bias": true, "kernel_initializer": {"class_name": "VarianceScaling", "config": {"scale": 1.0, "mode": "fan_avg", "distribution": "uniform", "seed": null}}, "bias_initializer": {"class_name": "Zeros", "config": {}}, "kernel_regularizer": {"class_name": "L1L2", "config": {"l1": 0.0, "l2": 0.00019999999494757503}}, "bias_regularizer": null, "activity_regularizer": null, "kernel_constraint": null, "bias_constraint": null}, "inbound_nodes": [[["pool2/3x3_s2", 0, 0, {}]]]}, {"name": "inception_3a/pool", "class_name": "MaxPooling2D", "config": {"name": "inception_3a/pool", "trainable": true, "pool_size": [3, 3], "padding": "same", "strides": [1, 1], "data_format": "channels_first"}, "inbound_nodes": [[["pool2/3x3_s2", 0, 0, {}]]]}, {"name": "inception_3a/1x1", "class_name": "Conv2D", "config": {"name": "inception_3a/1x1", "trainable": true, "filters": 64, "kernel_size": [1, 1], "strides": [1, 1], "padding": "same", "data_format": "channels_first", "dilation_rate": [1, 1], "activation": "relu", "use_bias": true, "kernel_initializer": {"class_name": "VarianceScaling", "config": {"scale": 1.0, "mode": "fan_avg", "distribution": "uniform", "seed": null}}, "bias_initializer": {"class_name": "Zeros", "config": {}}, "kernel_regularizer": {"class_name": "L1L2", "config": {"l1": 0.0, "l2": 0.00019999999494757503}}, "bias_regularizer": null, "activity_regularizer": null, "kernel_constraint": null, "bias_constraint": null}, "inbound_nodes": [[["pool2/3x3_s2", 0, 0, {}]]]}, {"name": "inception_3a/3x3", "class_name": "Conv2D", "config": {"name": "inception_3a/3x3", "trainable": true, "filters": 128, "kernel_size": [3, 3], "strides": [1, 1], "padding": "same", "data_format": "channels_first", "dilation_rate": [1, 1], "activation": "relu", "use_bias": true, "kernel_initializer": {"class_name": "VarianceScaling", "config": {"scale": 1.0, "mode": "fan_avg", "distribution": "uniform", "seed": null}}, "bias_initializer": {"class_name": "Zeros", "config": {}}, "kernel_regularizer": {"class_name": "L1L2", "config": {"l1": 0.0, "l2": 0.00019999999494757503}}, "bias_regularizer": null, "activity_regularizer": null, "kernel_constraint": null, "bias_constraint": null}, "inbound_nodes": [[["inception_3a/3x3_reduce", 0, 0, {}]]]}, {"name": "inception_3a/5x5", "class_name": "Conv2D", "config": {"name": "inception_3a/5x5", "trainable": true, "filters": 32, "kernel_size": [5, 5], "strides": [1, 1], "padding": "same", "data_format": "channels_first", "dilation_rate": [1, 1], "activation": "relu", "use_bias": true, "kernel_initializer": {"class_name": "VarianceScaling", "config": {"scale": 1.0, "mode": "fan_avg", "distribution": "uniform", "seed": null}}, "bias_initializer": {"class_name": "Zeros", "config": {}}, "kernel_regularizer": {"class_name": "L1L2", "config": {"l1": 0.0, "l2": 0.00019999999494757503}}, "bias_regularizer": null, "activity_regularizer": null, "kernel_constraint": null, "bias_constraint": null}, "inbound_nodes": [[["inception_3a/5x5_reduce", 0, 0, {}]]]}, {"name": "inception_3a/pool_proj", "class_name": "Conv2D", "config": {"name": "inception_3a/pool_proj", "trainable": true, "filters": 32, "kernel_size": [1, 1], "strides": [1, 1], "padding": "same", "data_format": "channels_first", "dilation_rate": [1, 1], "activation": "relu", "use_bias": true, "kernel_initializer": {"class_name": "VarianceScaling", "config": {"scale": 1.0, "mode": "fan_avg", "distribution": "uniform", "seed": null}}, "bias_initializer": {"class_name": "Zeros", "config": {}}, "kernel_regularizer": {"class_name": "L1L2", "config": {"l1": 0.0, "l2": 0.00019999999494757503}}, "bias_regularizer": null, "activity_regularizer": null, "kernel_constraint": null, "bias_constraint": null}, "inbound_nodes": [[["inception_3a/pool", 0, 0, {}]]]}, {"name": "inception_3a/output", "class_name": "Merge", "config": {"name": "inception_3a/output", "mode": "concat", "mode_type": "raw", "concat_axis": 1, "dot_axes": -1, "output_shape": null, "output_shape_type": "raw", "output_mask": null, "output_mask_type": "raw", "arguments": {}}, "inbound_nodes": [[["inception_3a/1x1", 0, 0, {"mask": [null, null, null, null]}], ["inception_3a/3x3", 0, 0, {"mask": [null, null, null, null]}], ["inception_3a/5x5", 0, 0, {"mask": [null, null, null, null]}], ["inception_3a/pool_proj", 0, 0, {"mask": [null, null, null, null]}]]]}, {"name": "inception_3b/3x3_reduce", "class_name": "Conv2D", "config": {"name": "inception_3b/3x3_reduce", "trainable": true, "filters": 128, "kernel_size": [1, 1], "strides": [1, 1], "padding": "same", "data_format": "channels_first", "dilation_rate": [1, 1], "activation": "relu", "use_bias": true, "kernel_initializer": {"class_name": "VarianceScaling", "config": {"scale": 1.0, "mode": "fan_avg", "distribution": "uniform", "seed": null}}, "bias_initializer": {"class_name": "Zeros", "config": {}}, "kernel_regularizer": {"class_name": "L1L2", "config": {"l1": 0.0, "l2": 0.00019999999494757503}}, "bias_regularizer": null, "activity_regularizer": null, "kernel_constraint": null, "bias_constraint": null}, "inbound_nodes": [[["inception_3a/output", 0, 0, {}]]]}, {"name": "inception_3b/5x5_reduce", "class_name": "Conv2D", "config": {"name": "inception_3b/5x5_reduce", "trainable": true, "filters": 32, "kernel_size": [1, 1], "strides": [1, 1], "padding": "same", "data_format": "channels_first", "dilation_rate": [1, 1], "activation": "relu", "use_bias": true, "kernel_initializer": {"class_name": "VarianceScaling", "config": {"scale": 1.0, "mode": "fan_avg", "distribution": "uniform", "seed": null}}, "bias_initializer": {"class_name": "Zeros", "config": {}}, "kernel_regularizer": {"class_name": "L1L2", "config": {"l1": 0.0, "l2": 0.00019999999494757503}}, "bias_regularizer": null, "activity_regularizer": null, "kernel_constraint": null, "bias_constraint": null}, "inbound_nodes": [[["inception_3a/output", 0, 0, {}]]]}, {"name": "inception_3b/pool", "class_name": "MaxPooling2D", "config": {"name": "inception_3b/pool", "trainable": true, "pool_size": [3, 3], "padding": "same", "strides": [1, 1], "data_format": "channels_first"}, "inbound_nodes": [[["inception_3a/output", 0, 0, {}]]]}, {"name": "inception_3b/1x1", "class_name": "Conv2D", "config": {"name": "inception_3b/1x1", "trainable": true, "filters": 128, "kernel_size": [1, 1], "strides": [1, 1], "padding": "same", "data_format": "channels_first", "dilation_rate": [1, 1], "activation": "relu", "use_bias": true, "kernel_initializer": {"class_name": "VarianceScaling", "config": {"scale": 1.0, "mode": "fan_avg", "distribution": "uniform", "seed": null}}, "bias_initializer": {"class_name": "Zeros", "config": {}}, "kernel_regularizer": {"class_name": "L1L2", "config": {"l1": 0.0, "l2": 0.00019999999494757503}}, "bias_regularizer": null, "activity_regularizer": null, "kernel_constraint": null, "bias_constraint": null}, "inbound_nodes": [[["inception_3a/output", 0, 0, {}]]]}, {"name": "inception_3b/3x3", "class_name": "Conv2D", "config": {"name": "inception_3b/3x3", "trainable": true, "filters": 192, "kernel_size": [3, 3], "strides": [1, 1], "padding": "same", "data_format": "channels_first", "dilation_rate": [1, 1], "activation": "relu", "use_bias": true, "kernel_initializer": {"class_name": "VarianceScaling", "config": {"scale": 1.0, "mode": "fan_avg", "distribution": "uniform", "seed": null}}, "bias_initializer": {"class_name": "Zeros", "config": {}}, "kernel_regularizer": {"class_name": "L1L2", "config": {"l1": 0.0, "l2": 0.00019999999494757503}}, "bias_regularizer": null, "activity_regularizer": null, "kernel_constraint": null, "bias_constraint": null}, "inbound_nodes": [[["inception_3b/3x3_reduce", 0, 0, {}]]]}, {"name": "inception_3b/5x5", "class_name": "Conv2D", "config": {"name": "inception_3b/5x5", "trainable": true, "filters": 96, "kernel_size": [5, 5], "strides": [1, 1], "padding": "same", "data_format": "channels_first", "dilation_rate": [1, 1], "activation": "relu", "use_bias": true, "kernel_initializer": {"class_name": "VarianceScaling", "config": {"scale": 1.0, "mode": "fan_avg", "distribution": "uniform", "seed": null}}, "bias_initializer": {"class_name": "Zeros", "config": {}}, "kernel_regularizer": {"class_name": "L1L2", "config": {"l1": 0.0, "l2": 0.00019999999494757503}}, "bias_regularizer": null, "activity_regularizer": null, "kernel_constraint": null, "bias_constraint": null}, "inbound_nodes": [[["inception_3b/5x5_reduce", 0, 0, {}]]]}, {"name": "inception_3b/pool_proj", "class_name": "Conv2D", "config": {"name": "inception_3b/pool_proj", "trainable": true, "filters": 64, "kernel_size": [1, 1], "strides": [1, 1], "padding": "same", "data_format": "channels_first", "dilation_rate": [1, 1], "activation": "relu", "use_bias": true, "kernel_initializer": {"class_name": "VarianceScaling", "config": {"scale": 1.0, "mode": "fan_avg", "distribution": "uniform", "seed": null}}, "bias_initializer": {"class_name": "Zeros", "config": {}}, "kernel_regularizer": {"class_name": "L1L2", "config": {"l1": 0.0, "l2": 0.00019999999494757503}}, "bias_regularizer": null, "activity_regularizer": null, "kernel_constraint": null, "bias_constraint": null}, "inbound_nodes": [[["inception_3b/pool", 0, 0, {}]]]}, {"name": "inception_3b/output", "class_name": "Merge", "config": {"name": "inception_3b/output", "mode": "concat", "mode_type": "raw", "concat_axis": 1, "dot_axes": -1, "output_shape": null, "output_shape_type": "raw", "output_mask": null, "output_mask_type": "raw", "arguments": {}}, "inbound_nodes": [[["inception_3b/1x1", 0, 0, {"mask": [null, null, null, null]}], ["inception_3b/3x3", 0, 0, {"mask": [null, null, null, null]}], ["inception_3b/5x5", 0, 0, {"mask": [null, null, null, null]}], ["inception_3b/pool_proj", 0, 0, {"mask": [null, null, null, null]}]]]}, {"name": "zero_padding2d_3", "class_name": "ZeroPadding2D", "config": {"name": "zero_padding2d_3", "trainable": true, "padding": [[1, 1], [1, 1]], "data_format": "channels_first"}, "inbound_nodes": [[["inception_3b/output", 0, 0, {}]]]}, {"name": "pool_helper_3", "class_name": "PoolHelper", "config": {"name": "pool_helper_3", "trainable": true}, "inbound_nodes": [[["zero_padding2d_3", 0, 0, {}]]]}, {"name": "pool3/3x3_s2", "class_name": "MaxPooling2D", "config": {"name": "pool3/3x3_s2", "trainable": true, "pool_size": [3, 3], "padding": "valid", "strides": [2, 2], "data_format": "channels_first"}, "inbound_nodes": [[["pool_helper_3", 0, 0, {}]]]}, {"name": "inception_4a/3x3_reduce", "class_name": "Conv2D", "config": {"name": "inception_4a/3x3_reduce", "trainable": true, "filters": 96, "kernel_size": [1, 1], "strides": [1, 1], "padding": "same", "data_format": "channels_first", "dilation_rate": [1, 1], "activation": "relu", "use_bias": true, "kernel_initializer": {"class_name": "VarianceScaling", "config": {"scale": 1.0, "mode": "fan_avg", "distribution": "uniform", "seed": null}}, "bias_initializer": {"class_name": "Zeros", "config": {}}, "kernel_regularizer": {"class_name": "L1L2", "config": {"l1": 0.0, "l2": 0.00019999999494757503}}, "bias_regularizer": null, "activity_regularizer": null, "kernel_constraint": null, "bias_constraint": null}, "inbound_nodes": [[["pool3/3x3_s2", 0, 0, {}]]]}, {"name": "inception_4a/5x5_reduce", "class_name": "Conv2D", "config": {"name": "inception_4a/5x5_reduce", "trainable": true, "filters": 16, "kernel_size": [1, 1], "strides": [1, 1], "padding": "same", "data_format": "channels_first", "dilation_rate": [1, 1], "activation": "relu", "use_bias": true, "kernel_initializer": {"class_name": "VarianceScaling", "config": {"scale": 1.0, "mode": "fan_avg", "distribution": "uniform", "seed": null}}, "bias_initializer": {"class_name": "Zeros", "config": {}}, "kernel_regularizer": {"class_name": "L1L2", "config": {"l1": 0.0, "l2": 0.00019999999494757503}}, "bias_regularizer": null, "activity_regularizer": null, "kernel_constraint": null, "bias_constraint": null}, "inbound_nodes": [[["pool3/3x3_s2", 0, 0, {}]]]}, {"name": "inception_4a/pool", "class_name": "MaxPooling2D", "config": {"name": "inception_4a/pool", "trainable": true, "pool_size": [3, 3], "padding": "same", "strides": [1, 1], "data_format": "channels_first"}, "inbound_nodes": [[["pool3/3x3_s2", 0, 0, {}]]]}, {"name": "inception_4a/1x1", "class_name": "Conv2D", "config": {"name": "inception_4a/1x1", "trainable": true, "filters": 192, "kernel_size": [1, 1], "strides": [1, 1], "padding": "same", "data_format": "channels_first", "dilation_rate": [1, 1], "activation": "relu", "use_bias": true, "kernel_initializer": {"class_name": "VarianceScaling", "config": {"scale": 1.0, "mode": "fan_avg", "distribution": "uniform", "seed": null}}, "bias_initializer": {"class_name": "Zeros", "config": {}}, "kernel_regularizer": {"class_name": "L1L2", "config": {"l1": 0.0, "l2": 0.00019999999494757503}}, "bias_regularizer": null, "activity_regularizer": null, "kernel_constraint": null, "bias_constraint": null}, "inbound_nodes": [[["pool3/3x3_s2", 0, 0, {}]]]}, {"name": "inception_4a/3x3", "class_name": "Conv2D", "config": {"name": "inception_4a/3x3", "trainable": true, "filters": 208, "kernel_size": [3, 3], "strides": [1, 1], "padding": "same", "data_format": "channels_first", "dilation_rate": [1, 1], "activation": "relu", "use_bias": true, "kernel_initializer": {"class_name": "VarianceScaling", "config": {"scale": 1.0, "mode": "fan_avg", "distribution": "uniform", "seed": null}}, "bias_initializer": {"class_name": "Zeros", "config": {}}, "kernel_regularizer": {"class_name": "L1L2", "config": {"l1": 0.0, "l2": 0.00019999999494757503}}, "bias_regularizer": null, "activity_regularizer": null, "kernel_constraint": null, "bias_constraint": null}, "inbound_nodes": [[["inception_4a/3x3_reduce", 0, 0, {}]]]}, {"name": "inception_4a/5x5", "class_name": "Conv2D", "config": {"name": "inception_4a/5x5", "trainable": true, "filters": 48, "kernel_size": [5, 5], "strides": [1, 1], "padding": "same", "data_format": "channels_first", "dilation_rate": [1, 1], "activation": "relu", "use_bias": true, "kernel_initializer": {"class_name": "VarianceScaling", "config": {"scale": 1.0, "mode": "fan_avg", "distribution": "uniform", "seed": null}}, "bias_initializer": {"class_name": "Zeros", "config": {}}, "kernel_regularizer": {"class_name": "L1L2", "config": {"l1": 0.0, "l2": 0.00019999999494757503}}, "bias_regularizer": null, "activity_regularizer": null, "kernel_constraint": null, "bias_constraint": null}, "inbound_nodes": [[["inception_4a/5x5_reduce", 0, 0, {}]]]}, {"name": "inception_4a/pool_proj", "class_name": "Conv2D", "config": {"name": "inception_4a/pool_proj", "trainable": true, "filters": 64, "kernel_size": [1, 1], "strides": [1, 1], "padding": "same", "data_format": "channels_first", "dilation_rate": [1, 1], "activation": "relu", "use_bias": true, "kernel_initializer": {"class_name": "VarianceScaling", "config": {"scale": 1.0, "mode": "fan_avg", "distribution": "uniform", "seed": null}}, "bias_initializer": {"class_name": "Zeros", "config": {}}, "kernel_regularizer": {"class_name": "L1L2", "config": {"l1": 0.0, "l2": 0.00019999999494757503}}, "bias_regularizer": null, "activity_regularizer": null, "kernel_constraint": null, "bias_constraint": null}, "inbound_nodes": [[["inception_4a/pool", 0, 0, {}]]]}, {"name": "inception_4a/output", "class_name": "Merge", "config": {"name": "inception_4a/output", "mode": "concat", "mode_type": "raw", "concat_axis": 1, "dot_axes": -1, "output_shape": null, "output_shape_type": "raw", "output_mask": null, "output_mask_type": "raw", "arguments": {}}, "inbound_nodes": [[["inception_4a/1x1", 0, 0, {"mask": [null, null, null, null]}], ["inception_4a/3x3", 0, 0, {"mask": [null, null, null, null]}], ["inception_4a/5x5", 0, 0, {"mask": [null, null, null, null]}], ["inception_4a/pool_proj", 0, 0, {"mask": [null, null, null, null]}]]]}, {"name": "inception_4b/3x3_reduce", "class_name": "Conv2D", "config": {"name": "inception_4b/3x3_reduce", "trainable": true, "filters": 112, "kernel_size": [1, 1], "strides": [1, 1], "padding": "same", "data_format": "channels_first", "dilation_rate": [1, 1], "activation": "relu", "use_bias": true, "kernel_initializer": {"class_name": "VarianceScaling", "config": {"scale": 1.0, "mode": "fan_avg", "distribution": "uniform", "seed": null}}, "bias_initializer": {"class_name": "Zeros", "config": {}}, "kernel_regularizer": {"class_name": "L1L2", "config": {"l1": 0.0, "l2": 0.00019999999494757503}}, "bias_regularizer": null, "activity_regularizer": null, "kernel_constraint": null, "bias_constraint": null}, "inbound_nodes": [[["inception_4a/output", 0, 0, {}]]]}, {"name": "inception_4b/5x5_reduce", "class_name": "Conv2D", "config": {"name": "inception_4b/5x5_reduce", "trainable": true, "filters": 24, "kernel_size": [1, 1], "strides": [1, 1], "padding": "same", "data_format": "channels_first", "dilation_rate": [1, 1], "activation": "relu", "use_bias": true, "kernel_initializer": {"class_name": "VarianceScaling", "config": {"scale": 1.0, "mode": "fan_avg", "distribution": "uniform", "seed": null}}, "bias_initializer": {"class_name": "Zeros", "config": {}}, "kernel_regularizer": {"class_name": "L1L2", "config": {"l1": 0.0, "l2": 0.00019999999494757503}}, "bias_regularizer": null, "activity_regularizer": null, "kernel_constraint": null, "bias_constraint": null}, "inbound_nodes": [[["inception_4a/output", 0, 0, {}]]]}, {"name": "inception_4b/pool", "class_name": "MaxPooling2D", "config": {"name": "inception_4b/pool", "trainable": true, "pool_size": [3, 3], "padding": "same", "strides": [1, 1], "data_format": "channels_first"}, "inbound_nodes": [[["inception_4a/output", 0, 0, {}]]]}, {"name": "inception_4b/1x1", "class_name": "Conv2D", "config": {"name": "inception_4b/1x1", "trainable": true, "filters": 160, "kernel_size": [1, 1], "strides": [1, 1], "padding": "same", "data_format": "channels_first", "dilation_rate": [1, 1], "activation": "relu", "use_bias": true, "kernel_initializer": {"class_name": "VarianceScaling", "config": {"scale": 1.0, "mode": "fan_avg", "distribution": "uniform", "seed": null}}, "bias_initializer": {"class_name": "Zeros", "config": {}}, "kernel_regularizer": {"class_name": "L1L2", "config": {"l1": 0.0, "l2": 0.00019999999494757503}}, "bias_regularizer": null, "activity_regularizer": null, "kernel_constraint": null, "bias_constraint": null}, "inbound_nodes": [[["inception_4a/output", 0, 0, {}]]]}, {"name": "inception_4b/3x3", "class_name": "Conv2D", "config": {"name": "inception_4b/3x3", "trainable": true, "filters": 224, "kernel_size": [3, 3], "strides": [1, 1], "padding": "same", "data_format": "channels_first", "dilation_rate": [1, 1], "activation": "relu", "use_bias": true, "kernel_initializer": {"class_name": "VarianceScaling", "config": {"scale": 1.0, "mode": "fan_avg", "distribution": "uniform", "seed": null}}, "bias_initializer": {"class_name": "Zeros", "config": {}}, "kernel_regularizer": {"class_name": "L1L2", "config": {"l1": 0.0, "l2": 0.00019999999494757503}}, "bias_regularizer": null, "activity_regularizer": null, "kernel_constraint": null, "bias_constraint": null}, "inbound_nodes": [[["inception_4b/3x3_reduce", 0, 0, {}]]]}, {"name": "inception_4b/5x5", "class_name": "Conv2D", "config": {"name": "inception_4b/5x5", "trainable": true, "filters": 64, "kernel_size": [5, 5], "strides": [1, 1], "padding": "same", "data_format": "channels_first", "dilation_rate": [1, 1], "activation": "relu", "use_bias": true, "kernel_initializer": {"class_name": "VarianceScaling", "config": {"scale": 1.0, "mode": "fan_avg", "distribution": "uniform", "seed": null}}, "bias_initializer": {"class_name": "Zeros", "config": {}}, "kernel_regularizer": {"class_name": "L1L2", "config": {"l1": 0.0, "l2": 0.00019999999494757503}}, "bias_regularizer": null, "activity_regularizer": null, "kernel_constraint": null, "bias_constraint": null}, "inbound_nodes": [[["inception_4b/5x5_reduce", 0, 0, {}]]]}, {"name": "inception_4b/pool_proj", "class_name": "Conv2D", "config": {"name": "inception_4b/pool_proj", "trainable": true, "filters": 64, "kernel_size": [1, 1], "strides": [1, 1], "padding": "same", "data_format": "channels_first", "dilation_rate": [1, 1], "activation": "relu", "use_bias": true, "kernel_initializer": {"class_name": "VarianceScaling", "config": {"scale": 1.0, "mode": "fan_avg", "distribution": "uniform", "seed": null}}, "bias_initializer": {"class_name": "Zeros", "config": {}}, "kernel_regularizer": {"class_name": "L1L2", "config": {"l1": 0.0, "l2": 0.00019999999494757503}}, "bias_regularizer": null, "activity_regularizer": null, "kernel_constraint": null, "bias_constraint": null}, "inbound_nodes": [[["inception_4b/pool", 0, 0, {}]]]}, {"name": "inception_4b_output", "class_name": "Merge", "config": {"name": "inception_4b_output", "mode": "concat", "mode_type": "raw", "concat_axis": 1, "dot_axes": -1, "output_shape": null, "output_shape_type": "raw", "output_mask": null, "output_mask_type": "raw", "arguments": {}}, "inbound_nodes": [[["inception_4b/1x1", 0, 0, {"mask": [null, null, null, null]}], ["inception_4b/3x3", 0, 0, {"mask": [null, null, null, null]}], ["inception_4b/5x5", 0, 0, {"mask": [null, null, null, null]}], ["inception_4b/pool_proj", 0, 0, {"mask": [null, null, null, null]}]]]}, {"name": "inception_4c/3x3_reduce", "class_name": "Conv2D", "config": {"name": "inception_4c/3x3_reduce", "trainable": true, "filters": 128, "kernel_size": [1, 1], "strides": [1, 1], "padding": "same", "data_format": "channels_first", "dilation_rate": [1, 1], "activation": "relu", "use_bias": true, "kernel_initializer": {"class_name": "VarianceScaling", "config": {"scale": 1.0, "mode": "fan_avg", "distribution": "uniform", "seed": null}}, "bias_initializer": {"class_name": "Zeros", "config": {}}, "kernel_regularizer": {"class_name": "L1L2", "config": {"l1": 0.0, "l2": 0.00019999999494757503}}, "bias_regularizer": null, "activity_regularizer": null, "kernel_constraint": null, "bias_constraint": null}, "inbound_nodes": [[["inception_4b_output", 0, 0, {}]]]}, {"name": "inception_4c/5x5_reduce", "class_name": "Conv2D", "config": {"name": "inception_4c/5x5_reduce", "trainable": true, "filters": 24, "kernel_size": [1, 1], "strides": [1, 1], "padding": "same", "data_format": "channels_first", "dilation_rate": [1, 1], "activation": "relu", "use_bias": true, "kernel_initializer": {"class_name": "VarianceScaling", "config": {"scale": 1.0, "mode": "fan_avg", "distribution": "uniform", "seed": null}}, "bias_initializer": {"class_name": "Zeros", "config": {}}, "kernel_regularizer": {"class_name": "L1L2", "config": {"l1": 0.0, "l2": 0.00019999999494757503}}, "bias_regularizer": null, "activity_regularizer": null, "kernel_constraint": null, "bias_constraint": null}, "inbound_nodes": [[["inception_4b_output", 0, 0, {}]]]}, {"name": "inception_4c/pool", "class_name": "MaxPooling2D", "config": {"name": "inception_4c/pool", "trainable": true, "pool_size": [3, 3], "padding": "same", "strides": [1, 1], "data_format": "channels_first"}, "inbound_nodes": [[["inception_4b_output", 0, 0, {}]]]}, {"name": "inception_4c/1x1", "class_name": "Conv2D", "config": {"name": "inception_4c/1x1", "trainable": true, "filters": 128, "kernel_size": [1, 1], "strides": [1, 1], "padding": "same", "data_format": "channels_first", "dilation_rate": [1, 1], "activation": "relu", "use_bias": true, "kernel_initializer": {"class_name": "VarianceScaling", "config": {"scale": 1.0, "mode": "fan_avg", "distribution": "uniform", "seed": null}}, "bias_initializer": {"class_name": "Zeros", "config": {}}, "kernel_regularizer": {"class_name": "L1L2", "config": {"l1": 0.0, "l2": 0.00019999999494757503}}, "bias_regularizer": null, "activity_regularizer": null, "kernel_constraint": null, "bias_constraint": null}, "inbound_nodes": [[["inception_4b_output", 0, 0, {}]]]}, {"name": "inception_4c/3x3", "class_name": "Conv2D", "config": {"name": "inception_4c/3x3", "trainable": true, "filters": 256, "kernel_size": [3, 3], "strides": [1, 1], "padding": "same", "data_format": "channels_first", "dilation_rate": [1, 1], "activation": "relu", "use_bias": true, "kernel_initializer": {"class_name": "VarianceScaling", "config": {"scale": 1.0, "mode": "fan_avg", "distribution": "uniform", "seed": null}}, "bias_initializer": {"class_name": "Zeros", "config": {}}, "kernel_regularizer": {"class_name": "L1L2", "config": {"l1": 0.0, "l2": 0.00019999999494757503}}, "bias_regularizer": null, "activity_regularizer": null, "kernel_constraint": null, "bias_constraint": null}, "inbound_nodes": [[["inception_4c/3x3_reduce", 0, 0, {}]]]}, {"name": "inception_4c/5x5", "class_name": "Conv2D", "config": {"name": "inception_4c/5x5", "trainable": true, "filters": 64, "kernel_size": [5, 5], "strides": [1, 1], "padding": "same", "data_format": "channels_first", "dilation_rate": [1, 1], "activation": "relu", "use_bias": true, "kernel_initializer": {"class_name": "VarianceScaling", "config": {"scale": 1.0, "mode": "fan_avg", "distribution": "uniform", "seed": null}}, "bias_initializer": {"class_name": "Zeros", "config": {}}, "kernel_regularizer": {"class_name": "L1L2", "config": {"l1": 0.0, "l2": 0.00019999999494757503}}, "bias_regularizer": null, "activity_regularizer": null, "kernel_constraint": null, "bias_constraint": null}, "inbound_nodes": [[["inception_4c/5x5_reduce", 0, 0, {}]]]}, {"name": "inception_4c/pool_proj", "class_name": "Conv2D", "config": {"name": "inception_4c/pool_proj", "trainable": true, "filters": 64, "kernel_size": [1, 1], "strides": [1, 1], "padding": "same", "data_format": "channels_first", "dilation_rate": [1, 1], "activation": "relu", "use_bias": true, "kernel_initializer": {"class_name": "VarianceScaling", "config": {"scale": 1.0, "mode": "fan_avg", "distribution": "uniform", "seed": null}}, "bias_initializer": {"class_name": "Zeros", "config": {}}, "kernel_regularizer": {"class_name": "L1L2", "config": {"l1": 0.0, "l2": 0.00019999999494757503}}, "bias_regularizer": null, "activity_regularizer": null, "kernel_constraint": null, "bias_constraint": null}, "inbound_nodes": [[["inception_4c/pool", 0, 0, {}]]]}, {"name": "inception_4c/output", "class_name": "Merge", "config": {"name": "inception_4c/output", "mode": "concat", "mode_type": "raw", "concat_axis": 1, "dot_axes": -1, "output_shape": null, "output_shape_type": "raw", "output_mask": null, "output_mask_type": "raw", "arguments": {}}, "inbound_nodes": [[["inception_4c/1x1", 0, 0, {"mask": [null, null, null, null]}], ["inception_4c/3x3", 0, 0, {"mask": [null, null, null, null]}], ["inception_4c/5x5", 0, 0, {"mask": [null, null, null, null]}], ["inception_4c/pool_proj", 0, 0, {"mask": [null, null, null, null]}]]]}, {"name": "inception_4d/3x3_reduce", "class_name": "Conv2D", "config": {"name": "inception_4d/3x3_reduce", "trainable": true, "filters": 144, "kernel_size": [1, 1], "strides": [1, 1], "padding": "same", "data_format": "channels_first", "dilation_rate": [1, 1], "activation": "relu", "use_bias": true, "kernel_initializer": {"class_name": "VarianceScaling", "config": {"scale": 1.0, "mode": "fan_avg", "distribution": "uniform", "seed": null}}, "bias_initializer": {"class_name": "Zeros", "config": {}}, "kernel_regularizer": {"class_name": "L1L2", "config": {"l1": 0.0, "l2": 0.00019999999494757503}}, "bias_regularizer": null, "activity_regularizer": null, "kernel_constraint": null, "bias_constraint": null}, "inbound_nodes": [[["inception_4c/output", 0, 0, {}]]]}, {"name": "inception_4d/5x5_reduce", "class_name": "Conv2D", "config": {"name": "inception_4d/5x5_reduce", "trainable": true, "filters": 32, "kernel_size": [1, 1], "strides": [1, 1], "padding": "same", "data_format": "channels_first", "dilation_rate": [1, 1], "activation": "relu", "use_bias": true, "kernel_initializer": {"class_name": "VarianceScaling", "config": {"scale": 1.0, "mode": "fan_avg", "distribution": "uniform", "seed": null}}, "bias_initializer": {"class_name": "Zeros", "config": {}}, "kernel_regularizer": {"class_name": "L1L2", "config": {"l1": 0.0, "l2": 0.00019999999494757503}}, "bias_regularizer": null, "activity_regularizer": null, "kernel_constraint": null, "bias_constraint": null}, "inbound_nodes": [[["inception_4c/output", 0, 0, {}]]]}, {"name": "inception_4d/pool", "class_name": "MaxPooling2D", "config": {"name": "inception_4d/pool", "trainable": true, "pool_size": [3, 3], "padding": "same", "strides": [1, 1], "data_format": "channels_first"}, "inbound_nodes": [[["inception_4c/output", 0, 0, {}]]]}, {"name": "inception_4d/1x1", "class_name": "Conv2D", "config": {"name": "inception_4d/1x1", "trainable": true, "filters": 112, "kernel_size": [1, 1], "strides": [1, 1], "padding": "same", "data_format": "channels_first", "dilation_rate": [1, 1], "activation": "relu", "use_bias": true, "kernel_initializer": {"class_name": "VarianceScaling", "config": {"scale": 1.0, "mode": "fan_avg", "distribution": "uniform", "seed": null}}, "bias_initializer": {"class_name": "Zeros", "config": {}}, "kernel_regularizer": {"class_name": "L1L2", "config": {"l1": 0.0, "l2": 0.00019999999494757503}}, "bias_regularizer": null, "activity_regularizer": null, "kernel_constraint": null, "bias_constraint": null}, "inbound_nodes": [[["inception_4c/output", 0, 0, {}]]]}, {"name": "inception_4d/3x3", "class_name": "Conv2D", "config": {"name": "inception_4d/3x3", "trainable": true, "filters": 288, "kernel_size": [3, 3], "strides": [1, 1], "padding": "same", "data_format": "channels_first", "dilation_rate": [1, 1], "activation": "relu", "use_bias": true, "kernel_initializer": {"class_name": "VarianceScaling", "config": {"scale": 1.0, "mode": "fan_avg", "distribution": "uniform", "seed": null}}, "bias_initializer": {"class_name": "Zeros", "config": {}}, "kernel_regularizer": {"class_name": "L1L2", "config": {"l1": 0.0, "l2": 0.00019999999494757503}}, "bias_regularizer": null, "activity_regularizer": null, "kernel_constraint": null, "bias_constraint": null}, "inbound_nodes": [[["inception_4d/3x3_reduce", 0, 0, {}]]]}, {"name": "inception_4d/5x5", "class_name": "Conv2D", "config": {"name": "inception_4d/5x5", "trainable": true, "filters": 64, "kernel_size": [5, 5], "strides": [1, 1], "padding": "same", "data_format": "channels_first", "dilation_rate": [1, 1], "activation": "relu", "use_bias": true, "kernel_initializer": {"class_name": "VarianceScaling", "config": {"scale": 1.0, "mode": "fan_avg", "distribution": "uniform", "seed": null}}, "bias_initializer": {"class_name": "Zeros", "config": {}}, "kernel_regularizer": {"class_name": "L1L2", "config": {"l1": 0.0, "l2": 0.00019999999494757503}}, "bias_regularizer": null, "activity_regularizer": null, "kernel_constraint": null, "bias_constraint": null}, "inbound_nodes": [[["inception_4d/5x5_reduce", 0, 0, {}]]]}, {"name": "inception_4d/pool_proj", "class_name": "Conv2D", "config": {"name": "inception_4d/pool_proj", "trainable": true, "filters": 64, "kernel_size": [1, 1], "strides": [1, 1], "padding": "same", "data_format": "channels_first", "dilation_rate": [1, 1], "activation": "relu", "use_bias": true, "kernel_initializer": {"class_name": "VarianceScaling", "config": {"scale": 1.0, "mode": "fan_avg", "distribution": "uniform", "seed": null}}, "bias_initializer": {"class_name": "Zeros", "config": {}}, "kernel_regularizer": {"class_name": "L1L2", "config": {"l1": 0.0, "l2": 0.00019999999494757503}}, "bias_regularizer": null, "activity_regularizer": null, "kernel_constraint": null, "bias_constraint": null}, "inbound_nodes": [[["inception_4d/pool", 0, 0, {}]]]}, {"name": "inception_4d/output", "class_name": "Merge", "config": {"name": "inception_4d/output", "mode": "concat", "mode_type": "raw", "concat_axis": 1, "dot_axes": -1, "output_shape": null, "output_shape_type": "raw", "output_mask": null, "output_mask_type": "raw", "arguments": {}}, "inbound_nodes": [[["inception_4d/1x1", 0, 0, {"mask": [null, null, null, null]}], ["inception_4d/3x3", 0, 0, {"mask": [null, null, null, null]}], ["inception_4d/5x5", 0, 0, {"mask": [null, null, null, null]}], ["inception_4d/pool_proj", 0, 0, {"mask": [null, null, null, null]}]]]}, {"name": "inception_4e/3x3_reduce", "class_name": "Conv2D", "config": {"name": "inception_4e/3x3_reduce", "trainable": true, "filters": 160, "kernel_size": [1, 1], "strides": [1, 1], "padding": "same", "data_format": "channels_first", "dilation_rate": [1, 1], "activation": "relu", "use_bias": true, "kernel_initializer": {"class_name": "VarianceScaling", "config": {"scale": 1.0, "mode": "fan_avg", "distribution": "uniform", "seed": null}}, "bias_initializer": {"class_name": "Zeros", "config": {}}, "kernel_regularizer": {"class_name": "L1L2", "config": {"l1": 0.0, "l2": 0.00019999999494757503}}, "bias_regularizer": null, "activity_regularizer": null, "kernel_constraint": null, "bias_constraint": null}, "inbound_nodes": [[["inception_4d/output", 0, 0, {}]]]}, {"name": "inception_4e/5x5_reduce", "class_name": "Conv2D", "config": {"name": "inception_4e/5x5_reduce", "trainable": true, "filters": 32, "kernel_size": [1, 1], "strides": [1, 1], "padding": "same", "data_format": "channels_first", "dilation_rate": [1, 1], "activation": "relu", "use_bias": true, "kernel_initializer": {"class_name": "VarianceScaling", "config": {"scale": 1.0, "mode": "fan_avg", "distribution": "uniform", "seed": null}}, "bias_initializer": {"class_name": "Zeros", "config": {}}, "kernel_regularizer": {"class_name": "L1L2", "config": {"l1": 0.0, "l2": 0.00019999999494757503}}, "bias_regularizer": null, "activity_regularizer": null, "kernel_constraint": null, "bias_constraint": null}, "inbound_nodes": [[["inception_4d/output", 0, 0, {}]]]}, {"name": "inception_4e/pool", "class_name": "MaxPooling2D", "config": {"name": "inception_4e/pool", "trainable": true, "pool_size": [3, 3], "padding": "same", "strides": [1, 1], "data_format": "channels_first"}, "inbound_nodes": [[["inception_4d/output", 0, 0, {}]]]}, {"name": "inception_4e/1x1", "class_name": "Conv2D", "config": {"name": "inception_4e/1x1", "trainable": true, "filters": 256, "kernel_size": [1, 1], "strides": [1, 1], "padding": "same", "data_format": "channels_first", "dilation_rate": [1, 1], "activation": "relu", "use_bias": true, "kernel_initializer": {"class_name": "VarianceScaling", "config": {"scale": 1.0, "mode": "fan_avg", "distribution": "uniform", "seed": null}}, "bias_initializer": {"class_name": "Zeros", "config": {}}, "kernel_regularizer": {"class_name": "L1L2", "config": {"l1": 0.0, "l2": 0.00019999999494757503}}, "bias_regularizer": null, "activity_regularizer": null, "kernel_constraint": null, "bias_constraint": null}, "inbound_nodes": [[["inception_4d/output", 0, 0, {}]]]}, {"name": "inception_4e/3x3", "class_name": "Conv2D", "config": {"name": "inception_4e/3x3", "trainable": true, "filters": 320, "kernel_size": [3, 3], "strides": [1, 1], "padding": "same", "data_format": "channels_first", "dilation_rate": [1, 1], "activation": "relu", "use_bias": true, "kernel_initializer": {"class_name": "VarianceScaling", "config": {"scale": 1.0, "mode": "fan_avg", "distribution": "uniform", "seed": null}}, "bias_initializer": {"class_name": "Zeros", "config": {}}, "kernel_regularizer": {"class_name": "L1L2", "config": {"l1": 0.0, "l2": 0.00019999999494757503}}, "bias_regularizer": null, "activity_regularizer": null, "kernel_constraint": null, "bias_constraint": null}, "inbound_nodes": [[["inception_4e/3x3_reduce", 0, 0, {}]]]}, {"name": "inception_4e/5x5", "class_name": "Conv2D", "config": {"name": "inception_4e/5x5", "trainable": true, "filters": 128, "kernel_size": [5, 5], "strides": [1, 1], "padding": "same", "data_format": "channels_first", "dilation_rate": [1, 1], "activation": "relu", "use_bias": true, "kernel_initializer": {"class_name": "VarianceScaling", "config": {"scale": 1.0, "mode": "fan_avg", "distribution": "uniform", "seed": null}}, "bias_initializer": {"class_name": "Zeros", "config": {}}, "kernel_regularizer": {"class_name": "L1L2", "config": {"l1": 0.0, "l2": 0.00019999999494757503}}, "bias_regularizer": null, "activity_regularizer": null, "kernel_constraint": null, "bias_constraint": null}, "inbound_nodes": [[["inception_4e/5x5_reduce", 0, 0, {}]]]}, {"name": "inception_4e/pool_proj", "class_name": "Conv2D", "config": {"name": "inception_4e/pool_proj", "trainable": true, "filters": 128, "kernel_size": [1, 1], "strides": [1, 1], "padding": "same", "data_format": "channels_first", "dilation_rate": [1, 1], "activation": "relu", "use_bias": true, "kernel_initializer": {"class_name": "VarianceScaling", "config": {"scale": 1.0, "mode": "fan_avg", "distribution": "uniform", "seed": null}}, "bias_initializer": {"class_name": "Zeros", "config": {}}, "kernel_regularizer": {"class_name": "L1L2", "config": {"l1": 0.0, "l2": 0.00019999999494757503}}, "bias_regularizer": null, "activity_regularizer": null, "kernel_constraint": null, "bias_constraint": null}, "inbound_nodes": [[["inception_4e/pool", 0, 0, {}]]]}, {"name": "inception_4e/output", "class_name": "Merge", "config": {"name": "inception_4e/output", "mode": "concat", "mode_type": "raw", "concat_axis": 1, "dot_axes": -1, "output_shape": null, "output_shape_type": "raw", "output_mask": null, "output_mask_type": "raw", "arguments": {}}, "inbound_nodes": [[["inception_4e/1x1", 0, 0, {"mask": [null, null, null, null]}], ["inception_4e/3x3", 0, 0, {"mask": [null, null, null, null]}], ["inception_4e/5x5", 0, 0, {"mask": [null, null, null, null]}], ["inception_4e/pool_proj", 0, 0, {"mask": [null, null, null, null]}]]]}, {"name": "zero_padding2d_4", "class_name": "ZeroPadding2D", "config": {"name": "zero_padding2d_4", "trainable": true, "padding": [[1, 1], [1, 1]], "data_format": "channels_first"}, "inbound_nodes": [[["inception_4e/output", 0, 0, {}]]]}, {"name": "pool_helper_4", "class_name": "PoolHelper", "config": {"name": "pool_helper_4", "trainable": true}, "inbound_nodes": [[["zero_padding2d_4", 0, 0, {}]]]}, {"name": "pool4/3x3_s2", "class_name": "MaxPooling2D", "config": {"name": "pool4/3x3_s2", "trainable": true, "pool_size": [3, 3], "padding": "valid", "strides": [2, 2], "data_format": "channels_first"}, "inbound_nodes": [[["pool_helper_4", 0, 0, {}]]]}, {"name": "inception_5a/3x3_reduce", "class_name": "Conv2D", "config": {"name": "inception_5a/3x3_reduce", "trainable": true, "filters": 160, "kernel_size": [1, 1], "strides": [1, 1], "padding": "same", "data_format": "channels_first", "dilation_rate": [1, 1], "activation": "relu", "use_bias": true, "kernel_initializer": {"class_name": "VarianceScaling", "config": {"scale": 1.0, "mode": "fan_avg", "distribution": "uniform", "seed": null}}, "bias_initializer": {"class_name": "Zeros", "config": {}}, "kernel_regularizer": {"class_name": "L1L2", "config": {"l1": 0.0, "l2": 0.00019999999494757503}}, "bias_regularizer": null, "activity_regularizer": null, "kernel_constraint": null, "bias_constraint": null}, "inbound_nodes": [[["pool4/3x3_s2", 0, 0, {}]]]}, {"name": "inception_5a/5x5_reduce", "class_name": "Conv2D", "config": {"name": "inception_5a/5x5_reduce", "trainable": true, "filters": 32, "kernel_size": [1, 1], "strides": [1, 1], "padding": "same", "data_format": "channels_first", "dilation_rate": [1, 1], "activation": "relu", "use_bias": true, "kernel_initializer": {"class_name": "VarianceScaling", "config": {"scale": 1.0, "mode": "fan_avg", "distribution": "uniform", "seed": null}}, "bias_initializer": {"class_name": "Zeros", "config": {}}, "kernel_regularizer": {"class_name": "L1L2", "config": {"l1": 0.0, "l2": 0.00019999999494757503}}, "bias_regularizer": null, "activity_regularizer": null, "kernel_constraint": null, "bias_constraint": null}, "inbound_nodes": [[["pool4/3x3_s2", 0, 0, {}]]]}, {"name": "inception_5a/pool", "class_name": "MaxPooling2D", "config": {"name": "inception_5a/pool", "trainable": true, "pool_size": [3, 3], "padding": "same", "strides": [1, 1], "data_format": "channels_first"}, "inbound_nodes": [[["pool4/3x3_s2", 0, 0, {}]]]}, {"name": "inception_5a/1x1", "class_name": "Conv2D", "config": {"name": "inception_5a/1x1", "trainable": true, "filters": 256, "kernel_size": [1, 1], "strides": [1, 1], "padding": "same", "data_format": "channels_first", "dilation_rate": [1, 1], "activation": "relu", "use_bias": true, "kernel_initializer": {"class_name": "VarianceScaling", "config": {"scale": 1.0, "mode": "fan_avg", "distribution": "uniform", "seed": null}}, "bias_initializer": {"class_name": "Zeros", "config": {}}, "kernel_regularizer": {"class_name": "L1L2", "config": {"l1": 0.0, "l2": 0.00019999999494757503}}, "bias_regularizer": null, "activity_regularizer": null, "kernel_constraint": null, "bias_constraint": null}, "inbound_nodes": [[["pool4/3x3_s2", 0, 0, {}]]]}, {"name": "inception_5a/3x3", "class_name": "Conv2D", "config": {"name": "inception_5a/3x3", "trainable": true, "filters": 320, "kernel_size": [3, 3], "strides": [1, 1], "padding": "same", "data_format": "channels_first", "dilation_rate": [1, 1], "activation": "relu", "use_bias": true, "kernel_initializer": {"class_name": "VarianceScaling", "config": {"scale": 1.0, "mode": "fan_avg", "distribution": "uniform", "seed": null}}, "bias_initializer": {"class_name": "Zeros", "config": {}}, "kernel_regularizer": {"class_name": "L1L2", "config": {"l1": 0.0, "l2": 0.00019999999494757503}}, "bias_regularizer": null, "activity_regularizer": null, "kernel_constraint": null, "bias_constraint": null}, "inbound_nodes": [[["inception_5a/3x3_reduce", 0, 0, {}]]]}, {"name": "inception_5a/5x5", "class_name": "Conv2D", "config": {"name": "inception_5a/5x5", "trainable": true, "filters": 128, "kernel_size": [5, 5], "strides": [1, 1], "padding": "same", "data_format": "channels_first", "dilation_rate": [1, 1], "activation": "relu", "use_bias": true, "kernel_initializer": {"class_name": "VarianceScaling", "config": {"scale": 1.0, "mode": "fan_avg", "distribution": "uniform", "seed": null}}, "bias_initializer": {"class_name": "Zeros", "config": {}}, "kernel_regularizer": {"class_name": "L1L2", "config": {"l1": 0.0, "l2": 0.00019999999494757503}}, "bias_regularizer": null, "activity_regularizer": null, "kernel_constraint": null, "bias_constraint": null}, "inbound_nodes": [[["inception_5a/5x5_reduce", 0, 0, {}]]]}, {"name": "inception_5a/pool_proj", "class_name": "Conv2D", "config": {"name": "inception_5a/pool_proj", "trainable": true, "filters": 128, "kernel_size": [1, 1], "strides": [1, 1], "padding": "same", "data_format": "channels_first", "dilation_rate": [1, 1], "activation": "relu", "use_bias": true, "kernel_initializer": {"class_name": "VarianceScaling", "config": {"scale": 1.0, "mode": "fan_avg", "distribution": "uniform", "seed": null}}, "bias_initializer": {"class_name": "Zeros", "config": {}}, "kernel_regularizer": {"class_name": "L1L2", "config": {"l1": 0.0, "l2": 0.00019999999494757503}}, "bias_regularizer": null, "activity_regularizer": null, "kernel_constraint": null, "bias_constraint": null}, "inbound_nodes": [[["inception_5a/pool", 0, 0, {}]]]}, {"name": "inception_5a/output", "class_name": "Merge", "config": {"name": "inception_5a/output", "mode": "concat", "mode_type": "raw", "concat_axis": 1, "dot_axes": -1, "output_shape": null, "output_shape_type": "raw", "output_mask": null, "output_mask_type": "raw", "arguments": {}}, "inbound_nodes": [[["inception_5a/1x1", 0, 0, {"mask": [null, null, null, null]}], ["inception_5a/3x3", 0, 0, {"mask": [null, null, null, null]}], ["inception_5a/5x5", 0, 0, {"mask": [null, null, null, null]}], ["inception_5a/pool_proj", 0, 0, {"mask": [null, null, null, null]}]]]}, {"name": "inception_5b/3x3_reduce", "class_name": "Conv2D", "config": {"name": "inception_5b/3x3_reduce", "trainable": true, "filters": 192, "kernel_size": [1, 1], "strides": [1, 1], "padding": "same", "data_format": "channels_first", "dilation_rate": [1, 1], "activation": "relu", "use_bias": true, "kernel_initializer": {"class_name": "VarianceScaling", "config": {"scale": 1.0, "mode": "fan_avg", "distribution": "uniform", "seed": null}}, "bias_initializer": {"class_name": "Zeros", "config": {}}, "kernel_regularizer": {"class_name": "L1L2", "config": {"l1": 0.0, "l2": 0.00019999999494757503}}, "bias_regularizer": null, "activity_regularizer": null, "kernel_constraint": null, "bias_constraint": null}, "inbound_nodes": [[["inception_5a/output", 0, 0, {}]]]}, {"name": "inception_5b/5x5_reduce", "class_name": "Conv2D", "config": {"name": "inception_5b/5x5_reduce", "trainable": true, "filters": 48, "kernel_size": [1, 1], "strides": [1, 1], "padding": "same", "data_format": "channels_first", "dilation_rate": [1, 1], "activation": "relu", "use_bias": true, "kernel_initializer": {"class_name": "VarianceScaling", "config": {"scale": 1.0, "mode": "fan_avg", "distribution": "uniform", "seed": null}}, "bias_initializer": {"class_name": "Zeros", "config": {}}, "kernel_regularizer": {"class_name": "L1L2", "config": {"l1": 0.0, "l2": 0.00019999999494757503}}, "bias_regularizer": null, "activity_regularizer": null, "kernel_constraint": null, "bias_constraint": null}, "inbound_nodes": [[["inception_5a/output", 0, 0, {}]]]}, {"name": "inception_5b/pool", "class_name": "MaxPooling2D", "config": {"name": "inception_5b/pool", "trainable": true, "pool_size": [3, 3], "padding": "same", "strides": [1, 1], "data_format": "channels_first"}, "inbound_nodes": [[["inception_5a/output", 0, 0, {}]]]}, {"name": "inception_5b/1x1", "class_name": "Conv2D", "config": {"name": "inception_5b/1x1", "trainable": true, "filters": 384, "kernel_size": [1, 1], "strides": [1, 1], "padding": "same", "data_format": "channels_first", "dilation_rate": [1, 1], "activation": "relu", "use_bias": true, "kernel_initializer": {"class_name": "VarianceScaling", "config": {"scale": 1.0, "mode": "fan_avg", "distribution": "uniform", "seed": null}}, "bias_initializer": {"class_name": "Zeros", "config": {}}, "kernel_regularizer": {"class_name": "L1L2", "config": {"l1": 0.0, "l2": 0.00019999999494757503}}, "bias_regularizer": null, "activity_regularizer": null, "kernel_constraint": null, "bias_constraint": null}, "inbound_nodes": [[["inception_5a/output", 0, 0, {}]]]}, {"name": "inception_5b/3x3", "class_name": "Conv2D", "config": {"name": "inception_5b/3x3", "trainable": true, "filters": 384, "kernel_size": [3, 3], "strides": [1, 1], "padding": "same", "data_format": "channels_first", "dilation_rate": [1, 1], "activation": "relu", "use_bias": true, "kernel_initializer": {"class_name": "VarianceScaling", "config": {"scale": 1.0, "mode": "fan_avg", "distribution": "uniform", "seed": null}}, "bias_initializer": {"class_name": "Zeros", "config": {}}, "kernel_regularizer": {"class_name": "L1L2", "config": {"l1": 0.0, "l2": 0.00019999999494757503}}, "bias_regularizer": null, "activity_regularizer": null, "kernel_constraint": null, "bias_constraint": null}, "inbound_nodes": [[["inception_5b/3x3_reduce", 0, 0, {}]]]}, {"name": "inception_5b/5x5", "class_name": "Conv2D", "config": {"name": "inception_5b/5x5", "trainable": true, "filters": 128, "kernel_size": [5, 5], "strides": [1, 1], "padding": "same", "data_format": "channels_first", "dilation_rate": [1, 1], "activation": "relu", "use_bias": true, "kernel_initializer": {"class_name": "VarianceScaling", "config": {"scale": 1.0, "mode": "fan_avg", "distribution": "uniform", "seed": null}}, "bias_initializer": {"class_name": "Zeros", "config": {}}, "kernel_regularizer": {"class_name": "L1L2", "config": {"l1": 0.0, "l2": 0.00019999999494757503}}, "bias_regularizer": null, "activity_regularizer": null, "kernel_constraint": null, "bias_constraint": null}, "inbound_nodes": [[["inception_5b/5x5_reduce", 0, 0, {}]]]}, {"name": "inception_5b/pool_proj", "class_name": "Conv2D", "config": {"name": "inception_5b/pool_proj", "trainable": true, "filters": 128, "kernel_size": [1, 1], "strides": [1, 1], "padding": "same", "data_format": "channels_first", "dilation_rate": [1, 1], "activation": "relu", "use_bias": true, "kernel_initializer": {"class_name": "VarianceScaling", "config": {"scale": 1.0, "mode": "fan_avg", "distribution": "uniform", "seed": null}}, "bias_initializer": {"class_name": "Zeros", "config": {}}, "kernel_regularizer": {"class_name": "L1L2", "config": {"l1": 0.0, "l2": 0.00019999999494757503}}, "bias_regularizer": null, "activity_regularizer": null, "kernel_constraint": null, "bias_constraint": null}, "inbound_nodes": [[["inception_5b/pool", 0, 0, {}]]]}, {"name": "inception_5b/output", "class_name": "Merge", "config": {"name": "inception_5b/output", "mode": "concat", "mode_type": "raw", "concat_axis": 1, "dot_axes": -1, "output_shape": null, "output_shape_type": "raw", "output_mask": null, "output_mask_type": "raw", "arguments": {}}, "inbound_nodes": [[["inception_5b/1x1", 0, 0, {"mask": [null, null, null, null]}], ["inception_5b/3x3", 0, 0, {"mask": [null, null, null, null]}], ["inception_5b/5x5", 0, 0, {"mask": [null, null, null, null]}], ["inception_5b/pool_proj", 0, 0, {"mask": [null, null, null, null]}]]]}, {"name": "pool5/7x7_s2", "class_name": "AveragePooling2D", "config": {"name": "pool5/7x7_s2", "trainable": true, "pool_size": [7, 7], "padding": "valid", "strides": [1, 1], "data_format": "channels_first"}, "inbound_nodes": [[["inception_5b/output", 0, 0, {}]]]}, {"name": "flatten_3", "class_name": "Flatten", "config": {"name": "flatten_3", "trainable": true}, "inbound_nodes": [[["pool5/7x7_s2", 0, 0, {}]]]}, {"name": "dropout_3", "class_name": "Dropout", "config": {"name": "dropout_3", "trainable": true, "rate": 0.4}, "inbound_nodes": [[["flatten_3", 0, 0, {}]]]}, {"name": "loss3/classifier", "class_name": "Dense", "config": {"name": "loss3/classifier", "trainable": true, "units": 1, "activation": "linear", "use_bias": true, "kernel_initializer": {"class_name": "VarianceScaling", "config": {"scale": 1.0, "mode": "fan_avg", "distribution": "uniform", "seed": null}}, "bias_initializer": {"class_name": "Zeros", "config": {}}, "kernel_regularizer": {"class_name": "L1L2", "config": {"l1": 0.0, "l2": 0.00019999999494757503}}, "bias_regularizer": null, "activity_regularizer": null, "kernel_constraint": null, "bias_constraint": null}, "inbound_nodes": [[["dropout_3", 0, 0, {}]]]}, {"name": "prob", "class_name": "Activation", "config": {"name": "prob", "trainable": true, "activation": "sigmoid"}, "inbound_nodes": [[["loss3/classifier", 0, 0, {}]]]}], "input_layers": [["input_1", 0, 0]], "output_layers": [["prob", 0, 0]]}, "keras_version": "2.0.6", "backend": "theano"}